DQN_AGENT_372.pth (torch_old, 12873 bytes, 6 tensors)

fc1.weight f4 [37, 37]
-0.022493502 -0.13521415 -0.07331784 -0.2045874 -0.121793546 -0.0058829566 0.078320846 -0.14570612
-0.14733967 0.044820797 -0.07432803 -0.042580932 -0.34469756 -0.114678875 -0.39249536 0.10179222
0.0019629851 -0.09638525 -0.28037304 -0.16146444 0.18694815 -0.10247323 -0.19429931 0.13017261
-0.43825504 0.06712704 -0.03338069 -0.101363644 -0.4058707 -0.036403425 0.082819134 -0.048797432
-0.16766196 -0.2541734 -0.40517405 0.03745522 -0.03395396 0.36342004 -0.0771399 -0.1028016
-0.09897374 -0.48473513 0.015375157 -0.10962764 -0.2847968 -0.12594402 0.189348 0.009075849
-0.004775821 -0.0071029905 0.04104522 0.08860202 0.06486411 -0.033500757 0.0866692 -0.06981857
0.080037355 0.0148239285 -0.070113376 -0.22866446 -0.15263428 -0.022894677 -0.112887435 -0.22194524
0.04611468 0.021829247 0.2549482 0.023099568 0.039352953 0.047538865 -0.040192 -0.32463023
0.13883658 0.023770813 0.025067776 0.13144961 0.12921885 0.06565976 -0.11112739 0.01254523
-0.047973577 0.022667592 0.10582182 -0.07091348 -0.11041946 0.046464548 0.022737855 0.07489279
0.24913862 -0.10375269 0.056136135 0.13129488 0.16703917 0.22086573 -0.17638673 -0.008352373
0.0143481735 0.13522153 0.15977928 -0.22185339 0.05450088 0.22231522 0.28365365 0.28277153
-0.22801663 0.023394018 -0.054430366 0.01916809 0.23982826 -0.0076358984 -0.012177766 0.03194846
0.09787594 0.07796469 0.080546044 0.018025918 -0.0042943563 0.023672376 0.025840217 0.04689965
0.055678856 -0.055289015 0.048050046 -0.026956102 -0.01631005 0.034025475 -0.082859136 -0.025494818
-0.0293076 -0.06542534 -0.029676093 0.34363565 -0.5672663 -0.3048648 -0.4566266 -1.887346
0.012443256 0.016995052 0.08844172 0.103068545 0.15940046 0.059870865 0.13627979 0.14415509
0.19261019 0.12067545 -0.0036321364 0.00037959887 -0.094788894 -0.060689017 -0.059536867 -0.057311844
0.016321888 0.4930044 -0.60814744 -0.5164086 -0.5577214 -2.13896 0.031134585 0.036883432
0.0457392 0.03451498 -0.06605024 -0.043379482 0.050993826 0.022182213 0.053621672 0.09550721
0.013291461 0.06877244 0.07854308 0.07823233 0.033746276 0.1011752 0.17000256 0.13985822
0.14233173 0.03480239 0.12316306 0.11933182 0.118074186 0.1279591 -0.0018041085 0.005063411
0.0030078134 0.0026377963 0.00791467 -0.031755805 -0.0142642995 0.084579036 0.24944258 0.13299938
-0.039228804 -0.10521966 -0.9653566 0.029683104 -0.133667 -0.081346795 0.043353297 0.086198464
0.11487153 0.015206621 -0.052427385 -0.117162034 -0.19031507 0.12757497 0.040086713 0.08626703
0.15221037 0.06039759 0.15244173 -0.045620758 -0.070364654 0.025174337 -0.1378261 0.036695983
-0.05002242 0.014690749 0.047703538 0.10220738 0.018247437 0.00407255 0.10842431 -0.014787267
-0.043824762 -0.06759826 0.003338576 0.032534983 -0.04890173 -0.06274003 -0.08206841 -0.1804155
0.05356189 0.09028572 0.07157441 0.020773642 -0.10411778 -0.19372554 -0.05759459 -0.042573024
0.19312721 0.068814665 0.13552937 -0.33875275 -0.08312924 -0.37281227 -0.47799918 -0.15513784
0.02425221 -0.031421743 -0.027058061 0.18399426 0.25282553 0.009492159 -0.13445677 -0.18800771
00000000: 4b44 b8bc 9475 0abe aa27 96bd 5c7f 51be
00000010: e56e f9bd d1c5 c0bb ae66 a03d fc33 15be
00000020: 36e0 16be 0396 373d 4b39 98bd 5869 2ebd
00000030: 337c b0be c2dc eabd 27f5 c8be 7078 d03d
00000040: 6da5 003b a165 c5bd 0e8d 8fbe ef56 25be
00000050: 566f 3f3e 7cdd d1bd 66f6 46be f84b 053e
00000060: f762 e0be e779 893d 31ba 08bd be97 cfbd
00000070: 49ce cfbe c21b 15bd 149d a93d d1df 47bd
00000080: 94af 2bbe 0423 82be f972 cfbe a56a 193d
00000090: 4f13 0bbd 3112 ba3e 86fb 9dbd a589 d2bd
000000a0: bfb2 cabd 342f f8be 15e8 7b3c 7584 e0bd
000000b0: e3d0 91be 78f7 00be 71e4 413e dfb2 143c
000000c0: 7e7e 9cbb 34c0 e8bb 081f 283d fa74 b53d
000000d0: 79d7 843d 1738 09bd 9f7f b13d 0afd 8ebd
000000e0: a0ea a33d 10e0 723c 9a97 8fbd 0427 6abe
000000f0: 294c 1cbe 9e8d bbbc 8731 e7bd 9d45 63be
00000100: bfe2 3c3d 40d3 b23c 9288 823e 4e3b bd3c
00000110: 9030 213d 1db8 423d 5ea0 24bd ef35 a6be
00000120: 2d2b 0e3e 02bb c23c f05a cd3c ba9a 063e
00000130: f251 043e a078 863d c296 e3bd 828a 4d3c
00000140: f17f 44bd 63b1 b93c 1cb9 d83d 163b 91bd
00000150: 9923 e2bd 9c51 3e3d bd44 ba3c 6461 993d
00000160: 321e 7f3e 4a7c d4bd 01ef 653d 2a72 063e
00000170: 510c 2b3e a02a 623e b99e 34be 64d8 08bc
00000180: 9a14 6b3c 8377 0a3e 2e9d 233e 892d 63be
00000190: 513c 5f3d 9aa6 633e 0d3b 913e 6ec7 903e
000001a0: 317d 69be d0a4 bf3c 60f2 5ebd 6606 9d3c
000001b0: 8a95 753e 8f36 fabb 4185 47bc 63dc 023d
000001c0: 2e73 c83d f4ab 9f3d 53f5 a43d 17ab 933c
000001d0: acb7 8cbb 92ec c13c ddae d33c d919 403d
000001e0: 830f 643d bc76 62bd 20d0 443d 0bd3 dcbc
000001f0: a79c 85bc 4c5e 0b3d 0db2 a9bd 82da d0bc
00000200: 7e16 f0bc b8fd 85bd 471b f3bc 03f1 af3e
00000210: 5d38 11bf 3d17 9cbe f6ca e9be 8e94 f1bf
00000220: ccde 4b3c 3539 8b3c ef20 b53d 9a15 d33d
00000230: e039 233e 273b 753d ee8c 0b3e 649d 133e
00000240: 9b3b 453e b124 f73d 2309 6ebb e604 c739
00000250: ae20 c2bd 0c95 78bd eedc 73bd d3bf 6abd
00000260: 7bb5 853c 136b fc3e 8daf 1bbf 5b33 04bf
00000270: d4c6 0ebf b8e4 08c0 f50d ff3c 1513 173d
00000280: 0759 3b3d 945f 0d3d 5945 87bd afae 31bd
00000290: e7de 503d 79b7 b53c 66a2 5b3d 4999 c33d
000002a0: 6ec4 593c 91d8 8c3d 32db a03d 4638 a03d
000002b0: 8939 0a3d f134 cf3d 2715 2e3e fe36 0f3e
000002c0: 69bf 113e f38c 0e3d ea3c fc3d 3e64 f43d
000002d0: e1d0 f13d b607 033e d677 ecba f8ea a53b
000002e0: bc1e 453b e1de 2c3b 88ac 013c 6012 02bd
000002f0: cfb4 69bc c637 ad3d e06d 7f3e fd30 083e
00000300: 62ae 20bd 687d d7bd 9c21 77bf fb29 f33c
00000310: 01e0 08be 2699 a6bd 3a93 313d d288 b03d
00000320: c441 eb3d 3125 793c 19be 56bd a6f2 efbd
00000330: f4e1 42be 03a3 023e f731 243d c5ac b03d
00000340: 09dd 1b3e 7763 773d af19 1c3e d5dc 3abd
00000350: 581b 90bd 693a ce3c 4922 0dbe 874e 163d
00000360: 4fe4 4cbd 78b1 703c c964 433d 1a52 d13d
00000370: a67b 953c 0773 853b 910d de3d 4b46 72bc
00000380: 9881 33bd f570 8abd 03cc 5a3b 6743 053d
00000390: 2e4d 48bd d87d 80bd 7c13 a8bd d7be 38be
000003a0: b663 5b3d b8e7 b83d 9b95 923d 7c2d aa3c
000003b0: b43b d5bd fd5f 46be 4ee8 6bbd 0d61 2ebd
000003c0: 24c3 453e b4ee 8c3d 36c8 0a3e 0071 adbe
000003d0: aa3f aabd 40e1 bebe 4fbc f4be 74dc 1ebe
000003e0: 92ac c63c 16b4 00bd dea8 ddbc fe68 3c3e
000003f0: 5972 813e 0085 1b3c 09af 09be 1885 40be

fc1.bias f4 [37]
0.05461612 -0.13903971 0.12198906 -0.1304815 0.14492331 0.04569487 0.028125793 -0.12728003
0.054025877 0.0017762716 -0.01406217 0.26109073 -0.17002338 -0.09546664 -0.040355053 0.04430559
0.08719743 -0.01879138 -0.0635046 -0.1896605 0.11201907 0.04865837 0.26749837 0.013002076
0.12733297 0.17483883 -0.18488613 0.061198168 0.050969433 0.050751824 -0.015886132 0.060677264
-0.11014136 -0.18073301 0.21945387 0.07390412 0.08781027
00000000: 27b5 5f3d 6d60 0ebe 66d5 f93d f19c 05be
00000010: c766 143e 8b2a 3b3d 1068 e63c b255 02be
00000020: 3d4a 5d3d c9d1 e83a 0465 66bc afad 853e
00000030: 9c1a 2ebe 0484 c3bd 574b 25bd c779 353d
00000040: 9194 b23d 61f0 99bc b30e 82bd 5d36 42be
00000050: 416a e53d 004e 473d 8cf5 883e a906 553c
00000060: 9363 023e f308 333e ca52 3dbe eeaa 7a3d
00000070: 53c5 503d 25e1 4f3d a223 82bc b988 783d
00000080: cb91 e1bd 1312 39be 84b8 603e 0b5b 973d
00000090: dfd5 b33d

fc2.weight f4 [37, 37]
0.09132896 -0.10936178 0.0018164774 -0.12157578 -5.517461e-05 -0.06311229 0.11923373 0.11869294
0.11445009 -0.030613791 0.049419742 -0.18412352 -0.11080535 -0.014595444 -0.05701968 -0.15545863
-0.097108215 -0.11227022 -0.1778197 0.03454027 0.061144404 0.061553773 -0.12565014 -0.16125965
-0.15397671 -0.04419693 0.09720902 -0.08635578 -0.1568862 -0.1089792 -0.040733647 -0.18323377
-0.15795071 0.11053697 -0.1413998 -0.03952098 -0.09677762 -0.044842944 -0.005880572 -0.165253
-0.3098139 0.31157872 0.09269732 -0.11356051 -0.06997661 0.06173418 0.1301623 -0.054872584
0.27366835 -0.114187725 -0.3512472 -0.26049432 0.008191277 -0.06925857 -0.030094095 -0.37703827
0.1506275 -0.15468471 -0.02039895 -0.07432239 -0.029876025 0.23836659 0.13366278 -0.33958432
0.3388806 0.0972498 0.41555235 0.12987193 -0.09436532 -0.3305656 -0.09160203 -0.11265154
0.4073595 0.03480459 0.23954096 0.15406302 -0.02311002 -0.2164823 0.39178377 0.0901521
0.06063093 0.012755814 0.09505612 -0.05870793 -0.011712487 0.26503795 0.09508624 -0.069397524
0.064212106 0.22376966 -0.019274887 -0.07001899 0.018113317 -0.04079933 0.047588293 0.027329462
0.042540602 0.038474098 -0.029096294 0.009314058 0.034726627 -0.54279673 -0.06988117 -0.16049987
0.1958731 -0.27467027 -0.0734412 0.065769814 -0.17484803 -0.48024574 -0.06705575 -0.06817842
-0.42293572 -0.14302908 0.08645458 -0.053630244 -0.22243647 -0.11837007 0.10189962 0.34806874
-0.30661154 -0.055312514 -0.012645461 -0.18879318 0.25747123 0.10073981 -0.09396665 -0.28458846
-0.06688974 -0.3518271 -0.35793334 -0.011286093 -0.21776167 0.08169738 -0.023563052 0.029704308
-0.10656732 0.2622523 -0.14379415 0.12733331 -0.13547258 0.093115 -0.22574444 0.5347256
-0.41299367 -0.17999914 0.1859608 -0.07999489 0.04702521 0.10495338 -0.0772159 0.076098286
-0.44693467 -0.14980012 0.1604468 0.013245329 0.092002556 0.032285985 0.09523268 -0.8155951
-0.15631065 -0.044536043 -0.120469086 0.048063915 -0.21719158 0.010659793 0.26598272 -0.20007356
-0.052326173 -0.07301095 0.10663607 -0.115984924 0.0044110166 0.0449126 0.061742846 0.6999344
-0.0005955137 0.48260385 0.17539357 0.25300324 0.06528328 0.071443856 0.15981689 0.6151068
0.056190927 0.0275343 -0.0066704797 -0.09515963 0.6280994 -0.38066748 -0.14431311 -0.220138
-0.06639771 -0.097588256 0.18076466 0.05018547 -0.41559213 -0.030503727 0.08939923 -0.3828766
-0.02850618 0.006027195 0.05511531 -0.0021527805 -0.012430048 -0.04826012 0.02129855 -0.0024203563
-0.22265357 0.13536216 0.2860518 -0.1764839 -0.47726673 0.10020998 0.50738716 -0.22831203
0.53333604 0.14191142 0.15729496 0.046228983 -0.29485247 0.020890797 0.06522813 0.16406395
0.051069614 0.056086782 0.3605462 0.005086642 -0.114465944 -0.16717462 0.15788864 0.2089732
0.0035583838 0.16757207 0.20294544 -0.17796195 -0.11176604 -0.13690321 0.06336813 -0.00025164406
0.16302559 -0.008963298 -0.05306481 0.02728823 0.14282352 0.02252343 -0.13134928 -0.09427294
0.28456962 0.39397734 0.07784167 -0.01502148 0.27691892 0.09604656 -0.04975933 -0.06571511
00000000: ae0a bb3d 12f9 dfbd de16 ee3a b9fc f8bd
00000010: 496b 67b8 0441 81bd d030 f43d 4915 f33d
00000020: cf64 ea3d c6c9 fabc 5b6c 4a3d e08a 3cbe
00000030: eaed e2bd bb21 6fbc 788d 69bd 8c30 1fbe
00000040: ace0 c6bd eeed e5bd 5e16 36be 197a 0d3d
00000050: 8e72 7a3d cf1f 7c3d 6eaa 00be 4021 25be
00000060: 12ac 1dbe d707 35bd 8615 c73d 4ddb b0bd
00000070: c7a6 20be 7d30 dfbd 53d8 26bd a2a1 3bbe
00000080: d5bd 21be 3561 e23d 1ccb 10be c0e0 21bd
00000090: 5833 c6bd 3cad 37bd d0b1 c0bb 1538 29be
000000a0: ed9f 9ebe 3f87 9f3e 18d8 bd3d 6a92 e8bd
000000b0: e64f 8fbd fbdc 7c3d 4449 053e 13c2 60bd
000000c0: 421e 8c3e 41db e9bd acd6 b3be 835f 85be
000000d0: b534 063c 70d7 8dbd e487 f6bc 290b c1be
000000e0: 183e 1a3e ab65 1ebe b31b a7bc 5636 98bd
000000f0: 91be f4bc 5f16 743e e5de 083e ffdd adbe
00000100: c281 ad3e e72a c73d 47c3 d43e 26fd 043e
00000110: 9b42 c1bd e53f a9be d899 bbbd dab5 e6bd
00000120: 6d91 d03e 428f 0e3d 3a4a 753e b2c2 1d3e
00000130: 3a51 bdbc 89ad 5dbe e297 c83e aaa1 b83d
00000140: 2358 783d c3fd 503c c8ac c23d ba77 70bd
00000150: bbe5 3fbc 0eb3 873e 93bc c23d 4a20 8ebd
00000160: a381 833d e023 653e 5ee6 9dbc 1e66 8fbd
00000170: 6162 943c 331d 27bd f1eb 423d 09e2 df3c
00000180: 0e3f 2e3d 0497 1d3d 5a5b eebc fe99 183c
00000190: 823d 0e3d baf4 0abf dc1d 8fbd 145a 24be
000001a0: f592 483e 95a1 8cbe 5768 96bd 53b2 863d
000001b0: 5d0b 33be c5e2 f5be 8654 89bd 21a1 8bbd
000001c0: 088b d8be 3776 12be 190f b13d 63ab 5bbd
000001d0: 63c6 63be 026c f2bd bfb0 d03d 1136 b23e
000001e0: 30fc 9cbe 608f 62bd e82e 4fbc 0053 41be
000001f0: 45d3 833e ac50 ce3d 9671 c0bd 94b5 91be
00000200: 7dfd 88bd af22 b4be 0a43 b7be 4ee9 38bc
00000210: eafc 5ebe f550 a73d 4d07 c1bc 7356 f33c
00000220: f83f dabd ef45 863e c63e 13be aa63 023e
00000230: 53b9 0abe 14b3 be3d 8d29 67be c7e3 083f
00000240: e873 d3be b251 38be 826c 3e3e 5cd4 a3bd
00000250: 829d 403d ccf1 d63d 5f23 9ebd 6bd9 9b3d
00000260: 9fd4 e4be 3465 19be 2a4c 243e f002 593c
00000270: d66b bc3d 4f3e 043d 5a09 c33d d7ca 50bf
00000280: e60f 20be 6d6b 36bd 7fb8 f6bd abde 443d
00000290: 7867 5ebe 6aa6 2e3c e32e 883e 15e0 4cbe
000002a0: f853 56bd c486 95bd 0364 da3d 8189 edbd
000002b0: 4a8a 903b 46f6 373d 11e6 7c3d e72e 333f
000002c0: 3f1c 1cba da17 f73e 5f9a 333e a489 813e
000002d0: 3eb3 853d 2851 923d 0aa7 233e a477 1d3f
000002e0: 7528 663d 9d8f e13c 0a94 dabb 0de3 c2bd
000002f0: 1fcb 203f d9e6 c2be d1c6 13be db6b 61be
00000300: 86fb 87bd 5adc c7bd 5f1a 393e 488f 4d3d
00000310: 7ec8 d4be f4e2 f9bc f216 b73d 6708 c4be
00000320: cb85 e9bc c77f c53b 97c0 613d aa15 0dbb
00000330: 66a7 4bbc 67ac 45bd 4c7a ae3c d79e 1ebb
00000340: 4cff 63be 619c 0a3e 6275 923e 32b8 34be
00000350: 4e5c f4be e43a cd3d 20e4 013f a1ca 69be
00000360: b688 083f 3a51 113e ee11 213e 9a5a 3d3d
00000370: e7f6 96be 2d23 ab3c 5396 853d 6100 283e
00000380: 5f2e 513d 41bb 653d 8399 b83e d9ad a63b
00000390: 1f6d eabd d32f 2bbe 8fad 213e 12fd 553e
000003a0: c633 693b 0398 2b3e eed0 4f3e a83b 36be
000003b0: 98e5 e4bd 5b30 0cbe 26c7 813d 18ef 83b9
000003c0: 2ef0 263e ccda 12bc 7c5a 59bd 918b df3c
000003d0: 5440 123e 0e83 b83c 6d80 06be 2c12 c1bd
000003e0: 1cb3 913e 66b7 c93e 746b 9f3d a71c 76bc
000003f0: 51c8 8d3e 0fb4 c43d 70d0 4bbd a595 86bd

fc2.bias f4 [37]
0.067800805 0.23791435 0.09485714 -0.030989917 0.25315213 -0.1043239 0.3321411 0.09071431
0.0230297 0.2604139 0.041738424 -0.10287208 0.29399264 0.013286922 0.003073958 0.33196232
0.043831907 -0.22900903 -0.16772218 -0.120789304 0.36883005 -0.027591322 -0.005555447 0.19862117
-0.030816551 -0.1238476 -0.070779845 -0.0023250657 0.08793923 0.13454312 0.111968525 0.2923428
-0.10526504 0.006122393 0.08389136 0.06752917 0.07102504
00000000: 26db 8a3d d29f 733e 7644 c23d 91de fdbc
00000010: 289d 813e c5a7 d5bd 660e aa3e 6dc8 b93d
00000020: c8a8 bc3c f854 853e e9f5 2a3d 99ae d2bd
00000030: 3486 963e 64b1 593c 7574 493b f7f6 a93e
00000040: 1689 333d 5881 6abe 5dbf 2bbe 6260 f7bd
00000050: 4bd7 bc3e 3207 e2bc 780a b6bb 5963 4b3e
00000060: fe72 fcbc cfa3 fdbd 06f5 90bd 2160 18bb
00000070: 7c19 b43d acc5 093e c14f e53d f5ad 953e
00000080: 3395 d7bd 5b9e c83b 3ccf ab3d bc4c 8a3d
00000090: 9375 913d

outp.weight f4 [4, 37]
-0.054699752 0.3283057 0.30740306 -0.35432354 0.4217133 0.44670874 0.11323541 0.10580228
-0.27647987 0.23728262 0.039238747 -0.004079136 0.24889551 0.07761973 -0.051328283 0.098803595
0.14394116 -0.2820691 -0.1936904 -0.2447467 0.23174317 0.25284082 0.07615473 0.07936799
0.31708705 0.122464016 0.10213453 -0.07749747 0.09688614 -0.038241155 0.317508 0.118274726
-0.15831834 -0.3219644 -0.45876932 0.17202906 0.17413159 -0.06687731 0.20587434 0.45268023
-0.34527293 0.37713453 0.4315053 0.23317632 0.2480658 -0.033606924 0.21817937 0.19243672
0.016297271 0.2283066 0.13461933 0.114338815 0.176564 0.0023949572 -0.29444787 -0.3407418
-0.30693918 0.08493459 0.26902908 -0.30980968 -0.08548066 0.37859157 -0.08931413 -0.30919483
-0.00422902 0.1598038 0.098208725 0.6855836 0.09048313 -0.29573956 -0.088662505 -0.22974662
0.3667516 0.44369906 -0.028757518 0.19490294 0.255786 -0.21961488 0.32576948 0.60797185
0.06539791 0.16968846 -0.110468745 0.18128926 0.084751226 -0.32856354 0.184739 0.13504502
0.17624286 0.17507158 0.34492192 -0.07313454 0.19742605 -0.6243835 0.11841043 0.08663591
-0.2262266 -0.0069478895 0.22348614 0.04648082 -0.03937572 -0.24767008 0.16644111 0.2508759
-0.26880953 0.19072427 -0.5978231 -0.33751568 -0.041429173 -0.03212345 0.66939616 -0.048472878
0.2705142 0.26099572 -0.4264776 0.33267438 -0.00074567104 0.1655591 0.31980315 -0.24524201
0.20981218 0.022929003 -0.058991347 -0.001904002 0.3344119 0.18164432 0.1944292 0.053677484
-0.5024183 0.07408281 0.08798664 0.20126335 0.13527578 0.049314033 0.3241785 0.09163724
-0.11916207 0.12097934 -0.24525419 0.13767359 0.20905977 0.8992784 0.22253507 0.19870235
0.04760352 -0.27972615 0.11032926 0.14146724
00000000: d90c 60bd af17 a83e ef63 9d3e e569 b5be
00000010: ceea d73e 02b7 e43e f7e7 e73d deae d83d
00000020: c58e 8dbe 37fa 723e cfb8 203d 46aa 85bb
00000030: 77de 7e3e 18f7 9e3d 9b3d 52bd 8a59 ca3d
00000040: 5065 133e 5c6b 90be c756 46be e19e 7abe
00000050: 154e 6d3e 5a74 813e 03f7 9b3d af8b a23d
00000060: 3c59 a23e 6ace fa3d e92b d13d feb6 9ebd
00000070: 3e6c c63d c2a2 1cbd 6990 a23e 053a f23d
00000080: 341e 22be 85d8 a4be d0e3 eabe 6328 303e
00000090: 8d4f 323e f9f6 88bd b9d0 523e b4c5 e73e
000000a0: 9dc7 b0be c717 c13e 43ee dc3e c6c5 6e3e
000000b0: f604 7e3e 6aa7 09bd 6a6a 5f3e 220e 453e
000000c0: db81 853c 35c9 693e a6d9 093e 782a ea3d
000000d0: 31cd 343e b7f4 1c3b dfc1 96be b675 aebe
000000e0: 2227 9dbe 30f2 ad3d 2ebe 893e 609f 9ebe
000000f0: 7c10 afbd c1d6 c13e 54ea b6bd c94e 9ebe
00000100: 9793 8abb 9ba3 233e a821 c93d 6882 2f3f
00000110: 384f b93d 2d6b 97be b094 b5bd b342 6bbe
00000120: dec6 bb3e 862c e33e e394 ebbc a394 473e
00000130: 62f6 823e b9e2 60be 42cb a63e 0ba4 1b3f
00000140: 57ef 853d d0c2 2d3e 703d e2bd e4a3 393e
00000150: 0d92 ad3d 7b39 a8be 382c 3d3e 3e49 0a3e
00000160: 0279 343e f745 333e 9b99 b03e 90c7 95bd
00000170: 0e2a 4a3e 99d7 1fbf 2b81 f23d 2b6e b13d
00000180: f2a7 67be 1fab e3bb 8dd9 643e ac62 3e3d
00000190: 6f48 21bd 3a9d 7dbe 8a6f 2a3e ce72 803e
000001a0: 67a1 89be 394d 433e ef0a 19bf dbce acbe
000001b0: a3b1 29bd e193 03bd 8c5d 2b3f 7f8b 46bd
000001c0: d680 8a3e 3ba1 853e 465b dabe 4c54 aa3e
000001d0: 2379 43ba 5388 293e 3dbd a33e b920 7bbe
000001e0: 01d9 563e 9bd5 bb3c e9a0 71bd b58f f9ba
000001f0: 0938 ab3e f800 3a3e 7318 473e ecdc 5b3d
00000200: 7c9e 00bf bab8 973d 5732 b43d fb17 4e3e
00000210: bc85 0a3e 83fd 493d b9fa a53e 4eac bb3d
00000220: 3e0b f4bd 04c4 f73d ea23 7bbe 4efa 0c3e
00000230: c413 563e 1c37 663f 3ce0 633e a178 4b3e
00000240: e9fb 423d 4438 8fbe 4ff4 e13d cadc 103e

outp.bias f4 [4]
0.2773298 0.07744516 0.17047593 0.0004963519
00000000: 2cfe 8d3e 919b 9e3d 3e91 2e3e 9d1d 023a
